Assignment4/src/cnn.pth (torch, 59152 bytes, 8 tensors)

conv1.weight f4 [16, 3, 5, 5]
0.11713237 0.09437448 -0.032961953 0.08040001 -0.02872068 0.08705378 -0.032094683 0.05297664
0.064054474 -0.13992688 0.18532439 0.076373175 0.10435576 -0.014085542 -0.022112256 0.091101125
0.18740647 0.09673541 -0.047729973 -0.074474014 0.03538181 0.055410217 0.030933192 0.14933258
-0.21724655 -0.06241953 -0.07584404 -0.114385545 -0.051991273 -0.17063858 0.14636838 -0.10915851
0.028890494 -0.0702928 -0.14489023 0.14120027 0.046769004 0.06511927 -0.078716084 -0.17921601
0.12957792 0.041910406 0.08663847 0.04715149 -0.11230667 0.03644119 0.113075495 0.07066994
0.09363439 -0.26632452 -0.095874384 -0.053105097 -0.10831403 0.05002176 -0.021980578 0.12662609
0.07681168 -0.01702109 0.036295056 -0.17224441 0.114224054 0.0038298047 0.056269806 -0.088430926
-0.07429991 0.090751484 0.20982182 0.0044422583 -0.095436245 -0.19879398 0.18018311 0.10739936
0.18277608 -0.053670503 -0.2534432 -0.029878378 -0.0058941212 0.25067562 0.11077099 0.106193386
-0.055701893 -0.19005354 0.065818965 0.038789533 0.18714148 0.025953516 -0.010081256 -0.15211356
-0.07247765 0.09755294 0.062290072 -0.085443 -0.041157484 -0.01643689 -0.15151966 -0.01906009
0.07475101 -0.112345144 -0.09879851 -0.18458024 -0.10244781 0.007823725 0.13459127 -0.028918078
0.009731834 -0.12944685 -0.24543554 -0.09419067 -0.045123488 0.016524864 0.14441627 -0.04309389
-0.018622337 -0.12605394 -0.022192476 -0.00063054566 -0.0013799089 -0.17267443 -0.11420937 -0.109855026
0.035819173 -0.04561815 -0.04682316 -0.0929108 -0.10466827 -0.036011282 -0.0041502677 0.06859016
0.14491741 -0.030612448 0.117469504 -0.030770354 -0.07883621 0.12371334 0.009285174 0.04641119
-0.101301625 -0.131832 0.013423935 -0.0014661538 0.14229396 -0.066173345 0.04201933 -0.14220397
-0.064533986 0.115814544 0.10884287 0.076826766 0.0879958 -0.12048218 0.009661077 -0.08320323
0.030552289 -0.031380534 0.07486412 -0.05142036 0.0008709136 -0.071530275 0.026338998 -5.4621487e-06
0.23549627 0.09236691 -0.08637461 -0.2586669 0.016078295 0.032636944 0.049744137 0.1485331
-0.059778664 -0.12369224 -0.09704708 0.035969328 0.14774077 0.02662662 -0.03802495 -0.0672263
-0.123148754 0.092158996 0.18490502 -0.06329676 0.0332677 -0.008889138 -0.07564479 -0.018633116
0.16970132 0.12741819 0.05784539 -0.11275006 -0.15972686 0.0116162235 -0.06259274 0.0009613815
0.10651377 0.011260233 -0.053487945 -0.13958976 -0.028006533 0.03969964 0.053990368 0.055744957
-0.10134102 -0.063951455 0.13392413 0.13598861 0.039745495 -0.02353682 -0.11708951 -0.1885245
-0.034406282 0.10518726 0.21034926 0.09620077 -0.18300728 -0.19859807 -0.05736854 0.13448894
0.09798476 0.0017600927 -0.047001902 -0.12513793 -0.08961657 0.13113266 0.019878358 -0.010620222
-0.14059581 0.07710965 0.047232226 -0.014309119 -0.12055114 -0.13731152 -0.12528682 0.050789148
0.019628247 0.0751882 0.028361157 0.010601131 0.013558877 -0.07487356 -0.08590779 -0.10836292
0.056237932 -0.033537272 -0.031171383 -0.044390425 0.0119883185 -0.09476255 -0.084132195 0.02251811
-0.021802494 0.07977183 0.041886955 -0.026146064 0.004658373 -0.041388042 -0.0049908236 -0.07781776
00000000: 19e3 ef3d 6847 c13d 1d03 07bd c3a8 a43d
00000010: a247 ebbc 4149 b23d b775 03bd 09fe 583d
00000020: fe2e 833d fe48 0fbe adc5 3d3e 8a69 9c3d
00000030: 79b8 d53d 0cc7 66bc c324 b5bc 3a93 ba3d
00000040: 7be7 3f3e 371d c63d 8180 43bd d585 98bd
00000050: 84ec 103d d3f5 623d 9b67 fd3c a4ea 183e
00000060: e175 5ebe 9fab 7fbd 1f54 9bbd f842 eabd
00000070: cdf4 54bd e1bb 2ebe 98e1 153e 7f8e dfbd
00000080: c2ab ec3c acf5 8fbd 1b5e 14be ce96 103e
00000090: db90 3f3d 405d 853d e635 a1bd 6784 37be
000000a0: 13b0 043e 3faa 2b3d 836f b13d ec21 413d
000000b0: 0a01 e6bd 5b43 153d 2094 e73d 67bb 903d
000000c0: 63c3 bf3d b05b 88be ca59 c4bd bb84 59bd
000000d0: bfd3 ddbd 9ee3 4c3d 9d10 b4bc 45aa 013e
000000e0: 714f 9d3d d06f 8bbc 20aa 143d d760 30be
000000f0: 4dee e93d 76fd 7a3b 2b7b 663d 461b b5bd
00000100: 8d2a 98bd eadb b93d 88db 563e 5d90 913b
00000110: 1474 c3bd a690 4bbe ec81 383e 32f4 db3d
00000120: a729 3b3e 9ad5 5bbd 4fc3 81be 80c3 f4bc
00000130: 7923 c1bb 8e58 803e e7db e23d eb7b d93d
00000140: ab27 64bd 659d 42be 18cc 863d c6e1 1e3d
00000150: 04a2 3f3e 789c d43c da2b 25bc a8c3 1bbe
00000160: 2a6f 94bd d6c9 c73d e023 7f3d bdfc aebd
00000170: c094 28bd a8a6 86bc f827 1bbe e823 9cbc
00000180: 0f17 993d 3615 e6bd e056 cabd 9a02 3dbe
00000190: 28d0 d1bd 152f 003c 4bd2 093e 9be5 ecbc
000001a0: 4572 1f3c b78d 04be 7453 7bbe 0ae7 c0bd
000001b0: 68d3 38bd 275f 873c dce1 133e 3883 30bd
000001c0: df8d 98bc 4914 01be ffcc b5bc 344b 25ba
000001d0: 0fde b4ba 91d1 30be 9ae6 e9bd acfb e0bd
000001e0: 20b7 123d 19da 3abd a4c9 3fbd 0448 bebd
000001f0: 515c d6bd 9180 13bd f8fe 87bb ff78 8c3d
00000200: 3b65 143e f5c6 fabc da93 f03d 1c12 fcbc
00000210: e174 a1bd 6b5d fd3d d820 183c a919 3e3d
00000220: 3a77 cfbd f8fe 06be 10f0 5b3c f52b c0ba
00000230: 82b5 113e e485 87bd 761c 2c3d eb9d 11be
00000240: 652a 84bd 2d30 ed3d 03e9 de3d 5a57 9d3d
00000250: 2437 b43d 5cbf f6bd 7e49 1e3c 7466 aabd
00000260: cb48 fa3c e088 00bd 5c52 993d 289e 52bd
00000270: 064e 643a 777e 92bd e2c4 d73c 8047 b7b6
00000280: ef25 713e dd2a bd3d 2ce5 b0bd fd6f 84be
00000290: a1b6 833c 51ae 053d 82c0 4b3d 1019 183e
000002a0: 79da 74bd 5b52 fdbd 9fc0 c6bd 9354 133d
000002b0: 5b49 173e 1220 da3c 0dc0 1bbd f1ad 89bd
000002c0: 6a35 fcbd dbbd bc3d be57 3d3e bba1 81bd
000002d0: b643 083d bfa3 11bc a8eb 9abd 7aa4 98bc
000002e0: 2fc6 2d3e ea79 023e 4aef 6c3d 81e9 e6bd
000002f0: 708f 23be f951 3e3c 9f30 80bd 3805 7c3a
00000300: e423 da3d d77c 383c 2d16 5bbd 9ef0 0ebe
00000310: f56d e5bc 179c 223d 0125 5d3d d354 643d
00000320: e18b cfbd fbf8 82bd 6823 093e 9940 0b3e
00000330: 2ccc 223d 4ad0 c0bc a0cc efbd 910c 41be
00000340: 9aed 0cbd 6b6c d73d cc65 573e e904 c53d
00000350: 4366 3bbe 4b5d 4bbe 46fb 6abd 78b7 093e
00000360: 3cac c83d e9b2 e63a 1185 40bd 2824 00be
00000370: e488 b7bd a447 063e f0d7 a23c 7100 2ebc
00000380: 59f8 0fbe aaeb 9d3d 9476 413d cc70 6abc
00000390: 84e3 f6bd 649b 0cbe 304b 00be 4808 503d
000003a0: 6bcb a03c 45fc 993d a855 e83c 5eb0 2d3c
000003b0: 0d26 5e3c 4f57 99bd 6cf0 afbd 61ed ddbd
000003c0: bf59 663d 615e 09bd 215b ffbc bcd2 35bd
000003d0: a76a 443c de12 c2bd 804d acbd e677 b83c
000003e0: 259b b2bc 6a5f a33d a891 2b3d 4530 d6bc
000003f0: 44a5 983b 8286 29bd 108a a3bb eb5e 9fbd

conv1.bias f4 [16]
0.07634625 -0.21021032 0.0051500197 0.23713994 -0.18814814 -0.03593122 0.17344032 -0.13039497
0.05011709 0.12760313 0.08879488 -0.10995516 -0.1319296 -0.0867631 -0.11373433 0.18671304
00000000: 6c5b 9c3d 6041 57be 7fc1 a83b d0d4 723e
00000010: e8a9 40be 9d2c 13bd 579a 313e 4286 05be
00000020: 9447 4d3d 65aa 023e 17da b53d 2c30 e1bd
00000030: 8e18 07be dab0 b1bd 8bed e8bd b431 3f3e

conv2.weight f4 [32, 16, 3, 3]
-0.013171446 0.030124502 0.05732635 -0.17347364 -0.19128786 -0.08425547 -0.22002576 -0.36251408
-0.21813488 -0.06650903 0.090237975 0.05519291 0.07892102 -0.008711441 0.05144414 0.05947771
0.04080615 0.02142005 0.12076891 0.04062697 0.04627304 0.060073964 0.09297343 0.11856086
-0.056686025 -0.05736548 -0.035596948 -0.0076082633 0.07980188 0.04785141 -0.0766375 0.016196938
-0.03248241 -0.021137724 -0.02275335 -0.107527606 -0.031264476 0.03935555 0.07214987 0.040338557
0.0005948942 0.10425178 -0.030246047 -0.13157171 -0.0048907567 0.17663813 -0.03595263 0.05869639
0.11188106 0.033621263 0.028296271 -0.012972112 -0.13302462 -0.17205791 -0.047376998 0.0025937187
-0.060319178 -0.043212134 -0.1377157 0.08938025 0.13656653 0.06532228 0.028161693 0.13714603
0.0754053 0.10178017 0.084003784 0.06310899 0.028523149 0.15554453 0.09884802 -0.047142148
-0.098614246 -0.07343962 0.088661075 0.0090029705 0.0137261925 -0.035200126 0.105527885 0.06731831
-0.13585481 -0.09142869 0.025610788 0.078007884 -0.0073494078 0.021436093 -0.0124814175 0.08916659
-0.0026597907 0.010281724 0.03225407 -0.07287294 0.033534985 0.018630512 0.028303258 0.09738173
-0.09284583 -0.14665791 0.0032569533 -0.0656069 -0.1796537 -0.05729248 -0.13862261 -0.08020567
-0.05219286 -0.06732279 -0.17804739 -0.064851776 -0.051988818 0.038824435 0.16933742 0.056532815
-0.020946067 0.08288632 -0.05014397 0.035197698 0.077367716 0.19701989 0.0582183 0.1625804
0.13225897 0.07748332 0.1551753 -0.06863917 -0.033200514 -0.048193734 -0.01416212 0.044006646
0.022520881 -0.12961528 -0.07026016 0.0167274 -0.002088696 0.03360861 0.01594499 -0.01101979
0.020992804 0.012040509 0.059809405 -0.025094759 -0.08441724 -0.0046720975 -0.061102025 -0.10047667
-0.118350625 -0.06522097 -0.17127393 0.06032867 0.016634738 -0.124016255 -0.0034550326 -0.100374855
0.097878814 0.064889506 0.0035299538 0.031710673 0.00020043335 -0.14761767 -0.04249937 0.11243406
0.1102319 -0.007963354 0.041773126 -0.020699115 -0.034765717 -0.031801306 0.11995968 -0.14704502
0.17958076 -0.025377024 -0.1627774 0.048154995 0.014304993 -0.058647092 -0.011577495 0.0042991345
0.023423515 0.0035579912 0.0673005 -0.0020605256 -0.059313897 -0.05777359 -0.1542208 -0.04012582
-0.11521273 -0.19632743 0.08542251 -0.013047783 -0.12915425 -0.09303623 -0.21033774 -0.328616
-0.03455069 -0.0024281202 -0.071684465 0.046167012 0.08825053 -0.13728313 -0.005910198 -0.00963554
-0.069888316 0.011029998 -0.015920911 0.062320173 0.01816718 0.041038856 -0.01770617 -0.30571455
-0.19130105 -0.32369164 0.1072614 0.0106240725 -0.16321613 0.09921465 0.17593014 0.13239236
0.016204813 0.07538455 -0.05692047 0.012292831 0.022152605 0.087913245 0.02431765 0.113789715
-0.027781092 0.016513988 -0.022043776 -0.06911495 0.002033449 0.038889237 0.061187528 0.21240975
0.04452106 0.022601964 -0.017774899 -0.12136391 -0.020251378 0.13588032 0.0016298967 -0.12977609
0.076089524 0.055998612 0.08559815 -0.10691401 -0.149406 -0.024832414 -0.030560577 -0.047342483
-0.087463334 -0.092853874 0.0044969595 -0.05539132 -0.11281404 -0.123786606 -0.29897812 0.017305631
00000000: 0ccd 57bc a9c7 f63c 09cf 6a3d 13a3 31be
00000010: f7e0 43be 228e acbd 6f4e 61be 729b b9be
00000020: c05e 5fbe e335 88bd b0ce b83d f611 623d
00000030: 58a1 a13d 6fba 0ebc 17b7 523d e69e 733d
00000040: 5924 273d 1a79 af3c b155 f73d 7768 263d
00000050: cd88 3d3d 1e10 763d db68 be3d 09d0 f23d
00000060: 9b2f 68bd 11f8 6abd 1bce 11bd bd4e f9bb
00000070: 2b6f a33d d7ff 433d 1ff4 9cbd 71af 843c
00000080: 470c 05bd 0529 adbc 3c65 babc 6f37 dcbd
00000090: 2e0f 00bd 4933 213d 50c3 933d 0b3a 253d
000000a0: adf2 1b3a f581 d53d 8fc6 f7bc bcba 06be
000000b0: a442 a0bb a0e0 343e 1143 13bd a06b 703d
000000c0: e621 e53d 73b6 093d 95cd e73c fb88 54bc
000000d0: 9b37 08be f32f 30be 620e 42bd 61fb 293b
000000e0: 3e11 77bd 35ff 30bd 5805 0dbe fe0c b73d
000000f0: 19d8 0b3e b0c7 853d 5ab3 e63c 0270 0c3e
00000100: 186e 9a3d 1f72 d03d 2d0a ac3d 493f 813d
00000110: 61a9 e93c 1147 1f3e d570 ca3d 2018 41bd
00000120: 44f6 c9bd 8367 96bd f093 b53d 3281 133c
00000130: d3e3 603c 022e 10bd 011f d83d 2fde 893d
00000140: 861d 0bbe f73e bbbd b7cd d13c 99c2 9f3d
00000150: 4dd3 f0bb bf9a af3c dc7e 4cbc f99c b63d
00000160: e24f 2ebb ad74 283c d81c 043d 683e 95bd
00000170: fb5b 093d 049f 983c 3cdc e73c 1370 c73d
00000180: f425 bebd 7e2d 16be 9c72 553b e95c 86bd
00000190: 24f7 37be 85ab 6abd 16f3 0dbe df42 a4bd
000001a0: 2ec8 55bd 88e0 89bd 0e52 36be 02d1 84bd
000001b0: 3af2 54bd 5f06 1f3d ca66 2d3e f48e 673d
000001c0: 1697 abbc 4ec0 a93d c363 4dbd 762b 103d
000001d0: f772 9e3d 95bf 493e 5076 6e3d 7a7b 263e
000001e0: e56e 073e 93af 9e3d 46e6 1e3e b192 8cbd
000001f0: 43fd 07bd cb66 45bd 3d08 68bc 5040 343d
00000200: b67d b83c deb9 04be 8fe4 8fbd e607 893c
00000210: 81e2 08bb 2fa9 093d 119f 823c 598c 34bc
00000220: 1af9 ab3c 8e45 453c b5fa 743d 8693 cdbc
00000230: f2e2 acbd 6518 99bb 1e46 7abd b6c6 cdbd
00000240: d061 f2bd 9292 85bd 6f62 2fbe 321b 773d
00000250: 9345 883c 3cfc fdbd d46d 62bb 5591 cdbd
00000260: b074 c83d cae4 843d cc56 673b 0de3 013d
00000270: 6b2b 5239 1629 17be d213 2ebd d443 e63d
00000280: 43c1 e13d ba78 02bc 4c1a 2b3d 3191 a9bc
00000290: 7f66 0ebd 1642 02bd 6cad f53d f892 16be
000002a0: 05e4 373e 7ae3 cfbc 1eaf 26be 2c3e 453d
000002b0: 7d5f 6a3c ef37 70bd 89af 3dbc c1df 8c3b
000002c0: ace2 bf3c 302d 693b d8d4 893d e209 07bb
000002d0: 21f3 72bd 00a4 6cbd 0fec 1dbe f95a 24bd
000002e0: a7f4 ebbd 0f0a 49be fff1 ae3d 5ec6 55bc
000002f0: 0341 04be c789 bebd c762 57be 5b40 a8be
00000300: 0685 0dbd 1921 1fbb 4ecf 92bd 9f19 3d3d
00000310: b2bc b43d f393 0cbe 56aa c1bb 62de 1dbc
00000320: 9b21 8fbd 2ab7 343c 926c 82bc 7043 7f3d
00000330: 56d3 943c 5c18 283d 880c 91bc 9e86 9cbe
00000340: 6ce4 43be e9ba a5be ddab db3d 9710 2e3c
00000350: 2122 27be 0d31 cb3d 0827 343e dd91 073e
00000360: f5bf 843c 3763 9a3d 7025 69bd df67 493c
00000370: 6179 b53c dc0b b43d cf35 c73c 950a e93d
00000380: 2c95 e3bc 5848 873c 2695 b4bc 248c 8dbd
00000390: 9d43 053b 524a 1f3d c69f 7a3d f181 593e
000003a0: b75b 363d c127 b93c aa9c 91bc a48d f8bd
000003b0: 38e6 a5bc 3624 0b3e 42a2 d53a 06e4 04be
000003c0: d3d4 9b3d cd5e 653d 154e af3d bcf5 dabd
000003d0: e3fd 18be 596d cbbc 2d5a fabc 31ea 41bd
000003e0: fa1f b3bd 2c2a bebd 3b5b 933b 02e2 62bd
000003f0: 0c0b e7bd d583 fdbd a913 99be 8ac4 8d3c

conv2.bias f4 [32]
-0.15030767 0.29121682 0.02858662 0.13705948 0.1590405 -0.06788934 0.11365121 -0.22089998
0.11264941 -0.0759454 -0.10447575 -0.1671522 -0.09562272 -0.17725961 0.16777699 0.12215153
-0.1468563 0.0070859953 -0.09692631 0.16713513 0.075136244 0.06929205 -0.0258366 -0.19924605
0.23189367 0.030342713 0.17033873 -0.04616897 0.1687276 0.05555135 -0.047061462 -0.05678396
00000000: 41ea 19be 5f1a 953e 7d2e ea3c 5259 0c3e
00000010: 83db 223e 9109 8bbd f7c1 e83d 9b33 62be
00000020: bcb4 e63d 4389 9bbd 62f7 d5bd f229 2bbe
00000030: d8d5 c3bd 8b83 35be bbcd 2b3e 952a fa3d
00000040: 7f61 16be a331 e83b 4d81 c6bd 7925 2b3e
00000050: 08e1 993d fee8 8d3d 47a7 d3bc 2807 4cbe
00000060: 8975 6d3e 4891 f83c 476d 2e3e ad1b 3dbd
00000070: eec6 2c3e d089 633d 85c3 40bd 4c96 68bd

fc1.weight f4 [16, 512]
-0.042460848 -0.0329092 0.007957373 0.026926 -0.03223148 -0.023862548 -0.030785201 -0.009845145
-0.042714044 -0.04098538 -0.01562019 0.036456525 0.0016076459 -0.024401564 0.023538766 0.026612317
0.02419866 -0.005594103 -0.0107932845 0.022700014 0.017751269 0.027504155 0.025823895 -0.018549936
0.031426303 0.002641153 0.037993528 0.037959695 0.031059075 0.023412956 0.028694687 -0.02677748
-0.023210034 -0.016304953 -0.028625315 0.026464384 -0.0018740593 -0.017198665 -0.025805933 -0.045352142
-0.0028344817 0.0328429 0.023053473 0.029022269 0.024189677 0.012591422 -0.00727811 -0.038699206
0.0264879 -0.037104227 -0.03258092 0.011728289 0.018265745 -0.02900357 0.021963306 -0.04736535
0.00452608 0.013504799 0.0022034084 -0.030873824 -0.03585169 0.029316476 0.0037307746 -0.024991555
0.03656202 -0.015230143 -0.014177761 0.005369923 0.030788448 -0.025678443 -0.0057826256 -0.02584622
-0.02602282 -0.012029594 -0.00605087 0.017691482 -0.039015766 0.01964069 0.028522292 -0.011043582
-0.009963797 0.0048932508 -0.046465877 0.026513647 -0.01373581 -0.0042278925 0.014946907 0.012396935
-0.026453946 -0.038466636 -0.048639704 -0.0429084 -0.015295707 -0.0403143 -0.010467702 -0.029353661
0.019036433 0.024223773 0.03138304 -0.034985907 -0.037193827 0.009325348 -0.016097728 0.02751055
-0.046549063 0.034977403 -0.036659364 -0.041445453 -0.010691904 -0.025583714 -0.033865113 0.019225342
0.034132164 0.024605501 0.005394377 -0.0063595846 -0.030063735 0.04212251 -0.02407057 -0.038748443
0.03749532 -0.0035641938 0.029695008 -0.014668584 0.03442156 -0.03116448 0.026595328 0.03439687
-0.006623249 0.023302607 -0.004437108 -0.046468537 0.013355925 -0.040361896 -0.0046158615 -0.0457578
-0.027046934 -0.019173527 -0.023180014 -0.04953896 -0.027955845 -0.046954505 -0.042952176 -0.050096802
-0.031464245 -0.015908683 0.03380798 -0.03709665 -0.03961231 -0.041982286 0.035339873 -0.01165725
-0.01776375 0.018225854 -0.032117546 -0.017685259 0.0345018 0.017532965 -0.040288296 -0.018151924
-0.001665584 0.009962175 -0.026337788 0.024938943 -0.005314304 -0.044216692 0.005836846 -0.04890725
-0.0029286304 -0.049714707 -0.018611496 -0.016276341 -0.045703527 -0.01850581 -0.004521324 -0.030905042
0.0002663105 0.017331932 -0.0007895952 -0.049384583 -0.006145094 -0.026716778 0.00659172 -0.041465256
-0.036576055 -0.007472555 0.019478858 -0.017812084 -0.008335891 -0.010382179 -0.040585015 -0.009501972
-0.007248912 0.0013097783 0.013774868 0.0071562333 0.018641496 -0.014430546 -0.025096793 0.03152717
0.029231843 0.018089844 0.026188467 0.015640158 0.033061337 0.032439113 -0.04193795 -0.047652267
-0.028934361 0.027784683 0.033898473 -0.0031224766 -0.038681496 -0.026776614 0.01500369 0.035161275
0.0025545717 -0.035070676 0.03592592 0.032801427 -0.025393164 -0.029885184 0.01940217 -0.03794155
0.030884806 -0.0149264075 -0.006606093 -0.029615125 -0.049694236 0.0039936104 -0.021749783 -0.031918
0.029222922 0.0021901673 -0.017854497 -0.04675931 -0.030883312 -0.020429237 0.012574167 -0.046284184
0.019519975 0.034194887 0.0076717744 -0.0498838 -0.00023742215 -0.02383977 0.007974602 -0.007656953
0.015619204 -0.009600641 0.001966235 0.011602507 -0.038746104 0.0013652636 0.03338174 0.024854109
00000000: 6deb 2dbd cccb 06bd a45f 023c ea93 dc3c
00000010: 2805 04bd 647b c3bc 3f31 fcbc 884d 21bc
00000020: ecf4 2ebd 49e0 27bd d3eb 7fbc 7053 153d
00000030: a5b7 d23a cae5 c7bc 5fd4 c03c 1302 da3c
00000040: 453c c63c bd4e b7bb 51d6 30bc 61f5 b93c
00000050: 1c6b 913c 6550 e13c a28c d33c 09f6 97bc
00000060: deb8 003d 3217 2d3b 1a9f 1b3d a07b 1b3d
00000070: 9a6f fe3c 87cc bf3c 1f11 eb3c 725c dbbc
00000080: f822 bebc f791 85bc a37f eabc d6cb d83c
00000090: ffa2 f5ba 37e4 8cbc f766 d3bc 2bc3 39bd
000000a0: b6c2 39bb 4786 063d a3da bc3c 1cc0 ed3c
000000b0: 6e29 c63c 404c 4e3c 367d eebb 0f83 1ebd
000000c0: 27fd d83c 9afa 17bd 9273 05bd 0228 403c
000000d0: 0ba2 953c e598 edbc 64ec b33c 2b02 42bd
000000e0: 834f 943b 3c43 5d3c 0f67 103b 1aeb fcbc
000000f0: 39d9 12bd 1b29 f03c 0380 743b 17bb ccbc
00000100: 0fc2 153d da87 79bc d749 68bc 2ef6 af3b
00000110: 0e38 fc3c 995b d2bc 2e7c bdbb 74bb d3bc
00000120: cf2d d5bc c617 45bc 6046 c6bb baed 903c
00000130: ffce 1fbd 83e5 a03c 95a7 e93c 24f0 34bc
00000140: 323f 23bc 9057 a03b 0153 3ebd 2633 d93c
00000150: 2a0c 61bc 228a 8abb dfe3 743c 841c 4b3c
00000160: f2b5 d8bc 318f 1dbd 6d3a 47bd b8c0 2fbd
00000170: d89a 7abc 9c20 25bd b980 2bbc 1777 f0bc
00000180: 4bf2 9b3c ef70 c63c 818b 003d 624d 0fbd
00000190: 8e58 18bd 58c9 183c 62df 83bc ce5d e13c
000001a0: 3baa 3ebd 7744 0f3d 2128 16bd b5c2 29bd
000001b0: 192d 2fbc f094 d1bc 25b6 0abd 777e 9d3c
000001c0: 2bce 0b3d 7a91 c93c 50c3 b03b 1064 d0bb
000001d0: 3948 f6bc a788 2c3d a52f c5bc b0b6 1ebd
000001e0: b194 193d 4095 69bb f242 f33c 8054 70bc
000001f0: 9ffd 0c3d a74c ffbc 72de d93c bbe3 0c3d
00000200: d707 d9bb 1ce5 be3c 2965 91bb cb55 3ebd
00000210: cfd2 5a3c 8452 25bd a740 97bb 886c 3bbd
00000220: 8891 ddbc cd11 9dbc 03e4 bdbc 5de9 4abd
00000230: a803 e5bc 5e53 40bd 9fee 2fbd 4e32 4dbd
00000240: a7e0 00bd ed52 82bc 3d7a 0a3d a8f2 17bd
00000250: 8440 22bd 9ef5 2bbd 8bc0 103d 0dfe 3ebc
00000260: 4985 91bc 634e 953c b08d 03bd ade0 90bc
00000270: c251 0d3d 4ba1 8f3c 5705 25bd 58b3 94bc
00000280: ba4f daba 6438 233c 58c2 d7bc c14c cc3c
00000290: 9d23 aebb 901c 35bd 0343 bf3b f852 48bd
000002a0: 44ee 3fbb a6a1 4bbd 2377 98bc f655 85bc
000002b0: 9f33 3bbd 7f99 97bc 9d27 94bb 922c fdbc
000002c0: 979f 8b39 b2fb 8d3c d6fc 4eba 7d47 4abd
000002d0: c95c c9bb 25dd dabc 5bff d73b 79d7 29bd
000002e0: c6d0 15bd 56dc f4bb 2092 9f3c a6ea 91bc
000002f0: 4393 08bc 041a 2abc 793c 26bd 29ae 1bbc
00000300: 4888 edbb deac ab3a fcaf 613c d67e ea3b
00000310: 0db6 983c 196e 6cbc ca97 cdbc a222 013d
00000320: 9e77 ef3c 2731 943c 3289 d63c ca1f 803c
00000330: 536b 073d e0de 043d 21c7 2bbd 062f 43bd
00000340: c107 edbc b49c e33c 20d9 0a3d 77a2 4cbb
00000350: 7d70 1ebd a15a dbbc 09d2 753c 4505 103d
00000360: 9a6a 273b 45a6 0fbd 0f27 133d ca5a 063d
00000370: 5305 d0bc c6d1 f4bc 4df1 9e3c 9968 1bbd
00000380: 2202 fd3c e48d 74bc ed77 d8bb 6b9b f2bc
00000390: 2f8c 4bbd d5dc 823b 9a2c b2bc 73bc 02bd
000003a0: e964 ef3c e988 0f3b 9843 92bc b186 3fbd
000003b0: 00ff fcbc 375b a7bc e103 4e3c 7c94 3dbd
000003c0: 5be8 9f3c f00f 0c3d 8263 fb3b f552 4cbd
000003d0: 86f4 78b9 9f4b c3bc e8a7 023c 2de7 fabb
000003e0: b1e7 7f3c 024c 1dbc f3db 003b 7118 3e3c
000003f0: 3cb4 1ebd a5f2 b23a 4bbb 083d d89a cb3c

fc1.bias f4 [16]
0.000498807 0.15388119 -0.023241464 -0.010733681 0.023719126 0.0007384829 0.04816284 0.029689819
-0.034191187 0.12519631 0.16859244 0.09155901 0.008075623 -0.070359476 0.1335973 -0.017242318
00000000: 5fc2 023a 0893 1d3e e264 bebc 52dc 2fbc
00000010: 9d4e c23c c096 413a 6646 453d 1038 f33c
00000020: 0f0c 0cbd 7633 003e 7fa3 2c3e 4a83 bb3d
00000030: 9e4f 043c a118 90bd bbcd 083e c33f 8dbc

fc2.weight f4 [3, 16]
0.22361326 0.31675768 -0.13854675 -0.29704675 -0.32812172 -0.2254029 -0.36527756 0.10316496
0.16065776 -0.14159407 0.293373 -0.053631417 0.06591598 0.19730796 0.32924467 -0.19064558
0.09239122 -0.47338468 -0.21982849 0.11534181 -0.06471038 0.046928275 0.10261672 0.1350495
0.12383208 -0.4441248 -0.48586085 -0.35152575 0.13516775 0.3267981 -0.41805652 0.03980715
0.01995963 0.13573737 0.09140508 0.06667829 0.2888206 -0.088657655 0.29253256 0.0102414265
-0.2214528 0.24989833 0.23652886 0.28021896 0.038280398 -0.0056337374 0.09618404 -0.10168045
00000000: e0fa 643e 102e a23e 33df 0dbe 8316 98be
00000010: 92ff a7be 05d0 66be a905 bbbe 2748 d33d
00000020: 7883 243e 09fe 10be fc34 963e 9eac 5bbd
00000030: f5fe 863d 190b 4a3e c292 a83e 9838 43be
00000040: 9c37 bd3d 7a5f f2be b81a 61be 5438 ec3d
00000050: e086 84bd dd37 403d b728 d23d 6b4a 0a3e
00000060: ac9b fd3d 5364 e3be c1c2 f8be 2ffb b3be
00000070: 6a69 0a3e 1552 a73e 810b d6be d20c 233d
00000080: 6182 a33c bdfe 0a3e 9632 bb3d a18e 883d
00000090: 4be0 933e 2592 b5bd d4c6 953e a8cb 273c
000000a0: 86c4 62be 59e5 7f3e 9f34 723e dc78 8f3e
000000b0: e8cb 1c3d 379b b8bb 23fc c43d d73d d0bd

fc2.bias f4 [3]
0.03911916 -0.057665966 -0.12999572
00000000: 6a3b 203d 2633 6cbd 991d 05be
