Assignment4/src/mlp.pth (torch, 789360 bytes, 4 tensors)

fc1.weight f4 [64, 3072]
0	0xb976612e	-0.0002349659
1	0xbc8bef24	-0.017081805
2	0xbc829b3c	-0.015943162
3	0x3d86cc22	0.06581904
4	0x3ca5b3ee	0.020227399
5	0xbba06a79	-0.004895505
6	0xbcf62690	-0.030047685
7	0xbd017853	-0.03160889
8	0xbc8ec909	-0.017429845
9	0xbd5964a7	-0.053074505
10	0xbd6e3d26	-0.058163784
11	0xbd163bb3	-0.036678027
12	0x3c13fd78	0.0090326
13	0x3bec7aa4	0.0072167683
14	0x39a2bcdf	0.00031039768
15	0xbd0c9d5d	-0.03432976
16	0xbbcd058c	-0.0062567648
17	0xbcb5e7d2	-0.022205267
18	0xbd556e19	-0.05210695
19	0xbd1147ef	-0.03546899
20	0xbcc37ad6	-0.023862284
21	0x3d0347a1	0.032050733
22	0x3cf02eb6	0.029319149
23	0xbb03c2be	-0.002010509
24	0xbd32f711	-0.043692652
25	0x3b3f57b2	0.0029196558
26	0x3d56a010	0.05239874
27	0x3bba9629	0.00569417
28	0x3d8343b1	0.064093955
29	0x3cf34901	0.029697897
30	0x3d103372	0.035205312
31	0x3d44ace6	0.04801645
32	0x3cd27de7	0.0256948
33	0xbcf3042d	-0.029665077
34	0x3b275152	0.0025530648
35	0x3d779e01	0.06045342
36	0xbb9b3009	-0.004735951
37	0xbccfb459	-0.025354551
38	0xbce18d0c	-0.027533077
39	0xbc362b85	-0.011118774
40	0x3d3dd4bc	0.046345457
41	0x3d05a5c6	0.032628797
42	0x3c71d644	0.014760558
43	0xbbec30fa	-0.007207987
44	0x3c2dcb98	0.010607623
45	0x3c25f1d0	0.010128453
46	0x3ce6db1e	0.028180655
47	0x3d061cc3	0.032742273
48	0x3d183ca0	0.03716719
49	0x3cfc20ac	0.030777298
50	0x3ca6eae5	0.020375678
51	0x3ce15002	0.027503971
52	0x3cb5e4c0	0.022203803
53	0x3d304f8a	0.043044604
54	0x3d1bab36	0.038005076
55	0x3ce31c3c	0.027723424
56	0xbd1a3ec9	-0.037657533
57	0xbc0775e1	-0.008267851
58	0x3d53828d	0.051638175
59	0x3d442e97	0.047895994
60	0x3d5e6ba2	0.054301865
61	0x3d00150f	0.031270083
62	0x3d325a94	0.043543413
63	0x3d3c0e2e	0.04591196
64	0x3ca69994	0.020336904
65	0x3c030461	0.0079966495
66	0x3d29bd70	0.041440427
67	0x3d4c0acc	0.049814984
68	0x3d88c881	0.06678868
69	0x3c53c201	0.012924672
70	0x3c3aadab	0.011393945
71	0xbb603c9a	-0.003421581
72	0x3c8fcf99	0.017555045
73	0x3cfff6ba	0.031245578
74	0xbc56541f	-0.0130815795
75	0xbc0e58f6	-0.008688202
76	0xbbc579f2	-0.0060265
77	0xbd4d6f81	-0.050155167
78	0xbc9482bf	-0.01812875
79	0x3d099a8e	0.03359466
80	0x3ca79fd3	0.020461952
81	0x3b5dcf85	0.0033845615
82	0x3d0bb45f	0.034107562
83	0x3d14935d	0.03627335
84	0x3c7567f1	0.014978395
85	0x3d0be99f	0.034158345
86	0x3d75f637	0.060049262
87	0x3c8959c0	0.016766429
88	0xbc384d9e	-0.011248974
89	0x3be29633	0.006914878
90	0x3c9b7695	0.018977443
91	0x3ccb1fef	0.0247955
92	0x3d7f76ea	0.062369265
93	0x3cd9cfc9	0.026588337
94	0xbc8677a1	-0.016414465
95	0xb8de43b9	-0.00010598399
96	0xbc23f978	-0.010008208
97	0x3d32fa9a	0.043696024
98	0x3db32949	0.08748109
99	0x3de2824f	0.11060011
100	0x3dc1c737	0.09461825
101	0x3cc4acef	0.024008242
102	0xba72d7ac	-0.0009263705
103	0x3c82f5e4	0.01598639
104	0x3cb92b05	0.022603521
105	0x3d1d32f9	0.03837869
106	0x3d438566	0.04773464
107	0x3d0c3204	0.034227386
108	0x3d0269d3	0.031839203
109	0x3c26113d	0.010135946
110	0x3d1aa643	0.037756216
111	0x3d639e9e	0.05557119
112	0x3dbffaf0	0.093740344
113	0x3d70d874	0.058800176
114	0x3d99902c	0.07498202
115	0x3d2809aa	0.04102484
116	0x3d58a1dc	0.052888736
117	0x3d89f139	0.06735463
118	0x3dc36064	0.095398694
119	0x3bcc7d9b	0.0062405593
120	0xbcbb59cc	-0.022869967
121	0x3bb59b55	0.0055421987
122	0x3d8d08fc	0.06886479
123	0x3dc3dabc	0.09563205
124	0x3de3af33	0.11117401
125	0x3d1433c6	0.036182187
126	0x3c73c310	0.0148780495
127	0xbbab4bb8	-0.0052275322
128	0xbcf685a9	-0.030093031
129	0x3c792ca6	0.015208399
130	0x3dcd024b	0.10010203
131	0x3db71494	0.08939472
132	0x3d504df1	0.05085558
133	0x383bb9e8	4.4757413e-05
134	0xbcd7eaf2	-0.026357148
135	0x3b98ba06	0.0046608476
136	0x3cd273dc	0.025690012
137	0x3dac8f41	0.08425761
138	0x3d5c12fd	0.053729046
139	0x3cb9c649	0.022677558
140	0x3ca7df74	0.020492293
141	0x3d1e9fa8	0.03872648
142	0x3d8b4afb	0.06801411
143	0x3daec75f	0.08534121
144	0x3d9ac961	0.07557941
145	0x3d738941	0.059457067
146	0x3d828dc7	0.06374698
147	0x3d8b192f	0.06791913
148	0x3d2fe212	0.042940207
149	0x3d88aeca	0.06673963
150	0x3d60faa5	0.054926533
151	0x3c857262	0.016289894
152	0xbd3d21e7	-0.04617491
153	0x3bc1b167	0.0059110406
154	0x3d3178b0	0.043327987
155	0x3d8da510	0.06916249
156	0x3d95a2e7	0.07306462
157	0x3cbb026e	0.022828307
158	0x3b5a6d1a	0.003332919
159	0xbd033813	-0.0320359
160	0xbc9bd6f1	-0.01902339
161	0x3ba724ec	0.005100837
162	0x3c523fa7	0.012832559
163	0x3ba042c9	0.004890774
164	0xbcc116ff	-0.023570536
165	0x37fd5460	3.019924e-05
166	0xbcb44677	-0.022006257
167	0xbca48aac	-0.020085655
168	0x3c892f79	0.01674627
169	0x3c089905	0.008337264
170	0x3b5940d5	0.0033150215
171	0xb98dcf4d	-0.00027048067
172	0x3d718c28	0.058971554
173	0x3c2c635f	0.010521739
174	0x3d43eb8f	0.047832068
175	0xbbab1e99	-0.0052221534
176	0x3a5db261	0.00084570615
177	0x3cd6535a	0.026162792
178	0x3d5f3926	0.05449786
179	0x3cf4df14	0.029891528
180	0x3c9c6d82	0.019095186
181	0x3ad78224	0.0016441983
182	0xbc4e1a08	-0.0125794485
183	0xbd2734e3	-0.04082192
184	0xbd58035c	-0.05273758
185	0xbceee29e	-0.029160794
186	0x3ad6a160	0.0016374998
187	0xbd0e2f8b	-0.03471331
188	0x3cb6d90e	0.022320297
189	0x3ceed655	0.029154936
190	0xbb0415c1	-0.0020154568
191	0xbd410bd7	-0.047130432
192	0x3c014e36	0.007892182
193	0x3d045f52	0.032317467
194	0x3ca69535	0.02033482
195	0x3d1721ff	0.036897656
196	0x3c9d92b3	0.01923499
197	0x3cf0356b	0.029322347
198	0x3c9cc244	0.019135602
199	0x3d913227	0.07089644
200	0x3c8c5463	0.017130082
201	0xbc0cda5b	-0.008596982
202	0x3cf9ea44	0.030507214
203	0x3d274028	0.04083267
204	0x3cd2a5e9	0.025713878
205	0xbd861373	-0.065466784
206	0x3c925ffe	0.017868038
207	0x3c423a02	0.01185465
208	0xbd79c01d	-0.06097423
209	0xbced94e4	-0.02900166
210	0x3c05522d	0.008137268
211	0x3b1bcc6d	0.002377297
212	0xbcbccc1f	-0.023046551
213	0xbcd17c6d	-0.025572026
214	0xbd0edca2	-0.03487838
215	0xbda56fd9	-0.08077974
216	0xbdead8d5	-0.11467139
217	0xbd9337a3	-0.07188346
218	0xbd23eb21	-0.04001916
219	0xbc8b13c9	-0.016977208
220	0x3c72781a	0.014799142
221	0x3d365766	0.044516943
222	0x3ad7c0fe	0.0016460714
223	0xbd517f49	-0.05114678
224	0x3d281f4a	0.041045465
225	0x3c8eb922	0.017422263
226	0x3d964bef	0.07338702
227	0x3d784c20	0.060619473
228	0x3d76fed7	0.060301628
229	0x3d44f916	0.04808911
230	0x3bd0f718	0.006377112
231	0x3d174536	0.03693124
232	0x3b9abf3c	0.004722504
233	0x3c845e8d	0.016158367
234	0x3c27c351	0.010239438
235	0x3baf8e74	0.005357558
236	0xbba26930	-0.004956387
237	0xbd2505e4	-0.04028882
238	0x3bc53cd6	0.006019215
239	0x3c1c4671	0.009538279
240	0xbb1653fb	-0.002293824
241	0xbd6a793b	-0.05724452
242	0xbc097c50	-0.008391455
243	0xbc302e7b	-0.010753269
244	0xbce8ed31	-0.028433414
245	0xbce2b92d	-0.02767619
246	0xbd6c6bdd	-0.057720054
247	0xbdee4f59	-0.11636228
248	0xbd81fecd	-0.063474275
249	0xbd20c7fc	-0.03925322
250	0xbc8b1e03	-0.016982084
251	0x3ce276c8	0.02764453
252	0x3d366885	0.04453327
253	0x3d428bd5	0.047496635
254	0x3caa4208	0.02078344
255	0x3d02152a	0.031758465

fc1.bias f4 [64]
0	0xbec32862	-0.38116747
1	0xbf100ea1	-0.5627232
2	0xbeb33928	-0.35004544
3	0x3e9ed1ff	0.3101959
4	0x3dc57f76	0.09643452
5	0x3e525473	0.20540027
6	0xbe6e6066	-0.2327896
7	0xbe4d585e	-0.2005324
8	0x3da7af9d	0.081877925
9	0x3e77479d	0.24148412
10	0x3ea86fa8	0.32897687
11	0xbe9dad32	-0.307962
12	0xbd7b17b7	-0.061301913
13	0xbedda01c	-0.43286216
14	0x3eafc9b5	0.34333578
15	0xbe009d85	-0.12560089
16	0x3b919794	0.0044431183
17	0xbeb0f1e0	-0.34559536
18	0x3ea4d922	0.3219691
19	0x3dfe6537	0.12421649
20	0x3e4aee61	0.19817497
21	0xbd5fbe87	-0.05462506
22	0x3ed7aa00	0.42121887
23	0x3ebf0ece	0.37315983
24	0xbedba8d1	-0.42902234
25	0xbe1fbe27	-0.15599881
26	0xbdf893cf	-0.12137567
27	0xbef8e7a0	-0.48614216
28	0x3e600955	0.2187856
29	0x3df1a34e	0.11798726
30	0xbf25ed93	-0.64815634
31	0xbf01bba5	-0.5067695
32	0xbe8e6255	-0.27809396
33	0x3e520228	0.20508635
34	0x3e10fc8e	0.14158842
35	0x3ea34760	0.31890392
36	0xbea92c8b	-0.33041796
37	0x3ef1199e	0.47089857
38	0xbed72484	-0.42020047
39	0xbef72011	-0.48266652
40	0x3ea89ca6	0.32932013
41	0xbec5d8be	-0.38641924
42	0x3eb73d5e	0.35789007
43	0xbebc7a26	-0.36811942
44	0xbee5cd19	-0.4488304
45	0xbf063d19	-0.5243698
46	0x3e2bffbf	0.16796778
47	0xbe97a711	-0.2961965
48	0xbf0a1bb3	-0.53948516
49	0x3e9c4964	0.30524743
50	0xbee0ec65	-0.43930355
51	0xbed5eb46	-0.41781062
52	0xbeb33cfe	-0.3500747
53	0x3eab7758	0.3348949
54	0xbedf3395	-0.4359404
55	0x3e845301	0.25844577
56	0xbe85c9cf	-0.2613053
57	0xbec71aa1	-0.38887504
58	0xbea32012	-0.31860405
59	0x3dfbb75f	0.12290835
60	0x3e1082fc	0.14112467
61	0x3e7b4f35	0.24541934
62	0x3c124233	0.008926916
63	0xbeb196ef	-0.34685466

fc2.weight f4 [3, 64]
0	0x3d1bff30	0.038085163
1	0xbd97c5a1	-0.074107416
2	0x3dab670f	0.08369266
3	0x3d0107f9	0.031501744
4	0x3d18da42	0.037317522
5	0x3df6c0cf	0.12048494
6	0xbd99345d	-0.07480691
7	0x3de704e5	0.112802304
8	0x3e3ba05a	0.18322888
9	0x3b92850e	0.0044714278
10	0x3ca71b56	0.020398777
11	0xbe0390ae	-0.1284816
12	0xbd387657	-0.045034733
13	0xbd85636e	-0.06513105
14	0x3d453b21	0.048152093
15	0xbe2691f1	-0.1626661
16	0xbdcba263	-0.09943082
17	0xbdfa05f8	-0.1220817
18	0xbdb4e04e	-0.08831845
19	0x3d737a7e	0.05944299
20	0xbce0ea4f	-0.027455477
21	0xbdd651e7	-0.104648404
22	0xbd337ba5	-0.04381909
23	0x3c93ae0a	0.018027324
24	0xbe1fb89f	-0.15597771
25	0x3e44c47a	0.19215575
26	0xbdbf4e7d	-0.09341142
27	0xbda40ebb	-0.08010622
28	0x3d92ec84	0.07174018
29	0x3df47f06	0.1193829
30	0xbb580482	-0.0032961671
31	0x3e052bc3	0.13004975
32	0xbe066f0c	-0.13128299
33	0x3da0b018	0.07846087
34	0xbd848a8a	-0.06471737
35	0xbe10f71f	-0.14156769
36	0xbe219301	-0.15778734
37	0xbd3cf868	-0.046135336
38	0x3cb78bb5	0.022405485
39	0xbdfd965c	-0.123821944
40	0x3d93ec09	0.072227545
41	0x3db456df	0.08805632
42	0xbd9d4f54	-0.07681146
43	0xbd8f8201	-0.07007218
44	0x3b358098	0.0027695056
45	0xbe039f56	-0.1285375
46	0xbd0f621f	-0.035005685
47	0x3cb6c795	0.022311965
48	0x3daa359c	0.083110064
49	0x3b44c413	0.0030024096
50	0x3dc809c4	0.09767488
51	0xbcb32276	-0.021867018
52	0xbd816dac	-0.063197464
53	0xbc8145f8	-0.015780434
54	0xbce7798a	-0.028256197
55	0xbd32d771	-0.043662492
56	0xbe406025	-0.18786676
57	0xbda07165	-0.07834128
58	0x3d0b5684	0.034018055
59	0xbdedad18	-0.11605281
60	0x3e312ba5	0.17301805
61	0x3e016844	0.1263743
62	0x3d53ffcb	0.051757615
63	0xbd1f9a16	-0.038965307
64	0x3cd508a7	0.026005102
65	0x3deccb2e	0.11562191
66	0x3cfe07b2	0.031009529
67	0xbd965715	-0.07340828
68	0xbe3530d6	-0.1769441
69	0xbe024751	-0.12722518
70	0x3e15166d	0.14559336
71	0x3e0741d1	0.132087
72	0xbd081825	-0.03322615
73	0xbe098af0	-0.13431907
74	0xbe1877fb	-0.14889519
75	0x3e3baa95	0.1832679
76	0x3d1ed804	0.038780227
77	0x3e243c8d	0.16038723
78	0xbdf9de94	-0.122006565
79	0xbc1b707a	-0.009487266
80	0x3d2386b0	0.03992337
81	0x3e1f61a5	0.15564592
82	0xbe1b86da	-0.1518816
83	0xbd76777b	-0.06017254
84	0xbd82e6ca	-0.06391676
85	0x3d9f7f50	0.07787955
86	0xbe67edd1	-0.22649314
87	0xbe0e3b83	-0.1388989
88	0x3e248ef0	0.16070151
89	0xbd72a8d3	-0.059243035
90	0x3df50990	0.119647145
91	0x3e25842d	0.16163702
92	0xbe15c4fb	-0.14625923
93	0xbd88ccc1	-0.06679679
94	0x3d29f025	0.041488785
95	0x3e02131d	0.12702604
96	0x3d9eedb0	0.07760179
97	0xbe252d66	-0.161306
98	0xbd51d1f4	-0.051225618
99	0xbd93441e	-0.07190727
100	0x3ded898a	0.11598499
101	0xbe173ec5	-0.14770038
102	0x3d8bc1f9	0.06824107
103	0x3e1dfa54	0.15427524
104	0xbe289b49	-0.16465487
105	0x3d276b63	0.040873896
106	0xbe2789e2	-0.16361192
107	0x3e455785	0.19271667
108	0x3db2c427	0.08728819
109	0x3e1d61ac	0.1536929
110	0xbe627a19	-0.22116889
111	0xbd6b6db0	-0.057477653
112	0x3e1fca98	0.15604627
113	0xbe667fde	-0.22509715
114	0x3e5b14b7	0.21394621
115	0x3c881b63	0.016614622
116	0x3e5bfab7	0.21482359
117	0xbe5bfa61	-0.2148223
118	0x3e886daf	0.26646182
119	0xbe33eb34	-0.17570192
120	0x3db09100	0.086214066
121	0x3d897b22	0.06712939
122	0x3dc6d973	0.09709444
123	0xbde2666e	-0.11054693
124	0xbce9c3b8	-0.028535709
125	0xbe4f183a	-0.20224085
126	0xbd9336b2	-0.07188167
127	0x3e2a0646	0.16603956
128	0xbe629f16	-0.22130999
129	0xbe20cd80	-0.15703392
130	0xbdd7f283	-0.10544302
131	0x3e1b3555	0.15157063
132	0xbd6b6974	-0.057473615
133	0x3e0fa85d	0.14029069
134	0x3d6cbb93	0.057796072
135	0xbe0acd4d	-0.13554879
136	0xbd14d79a	-0.036338426
137	0x3c944775	0.01810048
138	0xbd300db9	-0.042981837
139	0x3aed0c0a	0.0018085253
140	0x3e0bb5f8	0.13643634
141	0xbd412d1a	-0.047162153
142	0x3d16b0c9	0.03678969
143	0x3dcb7cc5	0.09935907
144	0x3ddafff6	0.10693352
145	0xbd089a8b	-0.03335051
146	0x3e2fc043	0.17163186
147	0x3e49b2d6	0.19697127
148	0x3df3d6e7	0.11906224
149	0x3e04496c	0.12918633
150	0x3c95f4c7	0.018305195
151	0xbd0173b9	-0.031604502
152	0xbe1ec076	-0.15503106
153	0xbdd081fd	-0.10181043
154	0x3d093ba6	0.03350415
155	0xbd87e960	-0.066363096
156	0x3d1676eb	0.036734503
157	0xbd5340c7	-0.05157545
158	0xbe3fa6eb	-0.18716018
159	0xbdd12cb0	-0.102136016
160	0xbe0beb53	-0.13663988
161	0x3d424cfc	0.0474367
162	0x3df49de9	0.119441815
163	0x3e076b23	0.13224463
164	0xbe30c125	-0.17261179
165	0x3e0a2aa7	0.13492833
166	0xbe23162c	-0.15926427
167	0xbc88c991	-0.016697677
168	0x3e2e4747	0.17019378
169	0xbd9df3fa	-0.077125505
170	0x3c7a621e	0.015282182
171	0xbc59cead	-0.013293904
172	0xbdc33af4	-0.09532729
173	0xbdb8b94d	-0.09019718
174	0xbd0e457c	-0.034734234
175	0xbe2068b8	-0.15664947
176	0xbe5fc11b	-0.21851008
177	0x3d6389e5	0.05555143
178	0xbccea1a9	-0.02522357
179	0xbe934e3c	-0.28770626
180	0xbeaef79b	-0.34173283
181	0x3e1cdae8	0.15317881
182	0xbd286aae	-0.041117363
183	0x3daf3b2d	0.08556209
184	0x3ca4fae1	0.02013916
185	0xbe7446c5	-0.23855121
186	0xbdd52500	-0.10407448
187	0x3e48a6ad	0.19594832
188	0xbc3269d3	-0.010889488
189	0xbd986532	-0.074411765
190	0x3c8614c6	0.016367327
191	0x3d18a8a1	0.037270192

fc2.bias f4 [3]
0	0x3bd7bc4c	0.006583726
1	0xbed5e123	-0.41773328
2	0x3e688314	0.22706252
